python3 train_cifar10.py --dataroot ../cifar10-dataset --imageSize 32 --cuda --manualSeed 13 --niter 100 --nz 512

Namespace(dataroot='../cifar10-dataset', workers=1, batch_size=20, imageSize=32, nz=512, ngf=128, ndf=128, niter=100, lr=0.0002, beta1=0.5, cuda=True, ngpu=1, netG='', netD='', manualSeed=13)


Random Seed:  13 

Files already downloaded and verified

 Generator(
  (main): Sequential(
    (0): ConvTranspose2d(512, 1024, kernel_size=(4, 4), stride=(1, 1), bias=False)
    (1): BatchNorm2d(1024, eps=1e-05, momentum=0.1, affine=True, track_running_stats=True)
    (2): ReLU(inplace=True)
    (3): ConvTranspose2d(1024, 512, kernel_size=(4, 4), stride=(2, 2), padding=(1, 1), bias=False)
    (4): BatchNorm2d(512, eps=1e-05, momentum=0.1, affine=True, track_running_stats=True)
    (5): ReLU(inplace=True)
    (6): ConvTranspose2d(512, 256, kernel_size=(4, 4), stride=(2, 2), padding=(1, 1), bias=False)
    (7): BatchNorm2d(256, eps=1e-05, momentum=0.1, affine=True, track_running_stats=True)
    (8): ReLU(inplace=True)
    (9): ConvTranspose2d(256, 128, kernel_size=(4, 4), stride=(2, 2), padding=(1, 1), bias=False)
    (10): BatchNorm2d(128, eps=1e-05, momentum=0.1, affine=True, track_running_stats=True)
    (11): ReLU(inplace=True)
    (12): ConvTranspose2d(128, 3, kernel_size=(1, 1), stride=(1, 1), bias=False)
    (13): Tanh()
  )
) 


 Discriminator(
  (main): Sequential(
    (0): Conv2d(3, 128, kernel_size=(4, 4), stride=(2, 2), padding=(1, 1), bias=False)
    (1): LeakyReLU(negative_slope=0.2, inplace=True)
    (2): Conv2d(128, 256, kernel_size=(4, 4), stride=(2, 2), padding=(1, 1), bias=False)
    (3): BatchNorm2d(256, eps=1e-05, momentum=0.1, affine=True, track_running_stats=True)
    (4): LeakyReLU(negative_slope=0.2, inplace=True)
    (5): Conv2d(256, 512, kernel_size=(4, 4), stride=(2, 2), padding=(1, 1), bias=False)
    (6): BatchNorm2d(512, eps=1e-05, momentum=0.1, affine=True, track_running_stats=True)
    (7): LeakyReLU(negative_slope=0.2, inplace=True)
    (8): Conv2d(512, 1024, kernel_size=(4, 4), stride=(2, 2), padding=(1, 1), bias=False)
    (9): BatchNorm2d(1024, eps=1e-05, momentum=0.1, affine=True, track_running_stats=True)
    (10): LeakyReLU(negative_slope=0.2, inplace=True)
    (11): Conv2d(1024, 1, kernel_size=(2, 2), stride=(2, 2), bias=False)
    (12): Sigmoid()
  )
) 

[0/100][0/2500] Loss_D: 1.5772 Loss_G: 8.5818 D(x): 0.6775 D(G(z)): 0.6524 / 0.0002
[0/100][1000/2500] Loss_D: 1.4665 Loss_G: 2.6364 D(x): 0.5320 D(G(z)): 0.3849 / 0.0884
[0/100][2000/2500] Loss_D: 0.8103 Loss_G: 2.8138 D(x): 0.8482 D(G(z)): 0.4344 / 0.0706
[1/100][0/2500] Loss_D: 1.2384 Loss_G: 2.6385 D(x): 0.8249 D(G(z)): 0.6232 / 0.0882
…
