python3 train.py --dataset mnist --dataroot ../mnist_dataset/train --imageSize 28 --batch_size 60 --cuda --ngpu 1 --manualSeed 13 --niter 100

Namespace(dataset='mnist', dataroot='../mnist_dataset/train', workers=1, batch_size=60, imageSize=28, nz=100, ngf=64, ndf=64, niter=100, lr=0.0002, beta1=0.5, cuda=True, ngpu=1, netG='', netD='', manualSeed=13)


Random Seed:  13 


 Generator(
  (main): Sequential(
    (0): ConvTranspose2d(100, 512, kernel_size=(4, 4), stride=(1, 1), bias=False)
    (1): BatchNorm2d(512, eps=1e-05, momentum=0.1, affine=True, track_running_stats=True)
    (2): ReLU(inplace=True)
    (3): ConvTranspose2d(512, 256, kernel_size=(4, 4), stride=(2, 2), padding=(1, 1), bias=False)
    (4): BatchNorm2d(256, eps=1e-05, momentum=0.1, affine=True, track_running_stats=True)
    (5): ReLU(inplace=True)
    (6): ConvTranspose2d(256, 128, kernel_size=(4, 4), stride=(2, 2), padding=(1, 1), bias=False)
    (7): BatchNorm2d(128, eps=1e-05, momentum=0.1, affine=True, track_running_stats=True)
    (8): ReLU(inplace=True)
    (9): ConvTranspose2d(128, 64, kernel_size=(4, 4), stride=(2, 2), padding=(1, 1), bias=False)
    (10): BatchNorm2d(64, eps=1e-05, momentum=0.1, affine=True, track_running_stats=True)
    (11): ReLU(inplace=True)
    (12): ConvTranspose2d(64, 1, kernel_size=(1, 1), stride=(1, 1), padding=(2, 2), bias=False)
    (13): Tanh()
  )
) 


 Discriminator(
  (main): Sequential(
    (0): Conv2d(1, 64, kernel_size=(4, 4), stride=(2, 2), padding=(1, 1), bias=False)
    (1): LeakyReLU(negative_slope=0.2, inplace=True)
    (2): Conv2d(64, 128, kernel_size=(4, 4), stride=(2, 2), padding=(1, 1), bias=False)
    (3): BatchNorm2d(128, eps=1e-05, momentum=0.1, affine=True, track_running_stats=True)
    (4): LeakyReLU(negative_slope=0.2, inplace=True)
    (5): Conv2d(128, 256, kernel_size=(4, 4), stride=(2, 2), padding=(1, 1), bias=False)
    (6): BatchNorm2d(256, eps=1e-05, momentum=0.1, affine=True, track_running_stats=True)
    (7): LeakyReLU(negative_slope=0.2, inplace=True)
    (8): Conv2d(256, 1, kernel_size=(4, 4), stride=(2, 2), padding=(1, 1), bias=False)
    (9): Sigmoid()
  )
) 

[0/100][1000/1000] Loss_D: 1.1143 Loss_G: 0.9362 D(x): 0.4387 D(G(z)): 0.1127 / 0.4296
[1/100][1000/1000] Loss_D: 0.8132 Loss_G: 1.3152 D(x): 0.6561 D(G(z)): 0.2791 / 0.2984
[2/100][1000/1000] Loss_D: 0.9625 Loss_G: 1.1836 D(x): 0.5727 D(G(z)): 0.2747 / 0.3334
[3/100][1000/1000] Loss_D: 0.9505 Loss_G: 1.1528 D(x): 0.5581 D(G(z)): 0.2610 / 0.3449
…
